Files already downloaded and verified
Files already downloaded and verified

🎯 Build Model 🎯

Model: "mobilenet_cifar"
┏━━━━━━━━━━━━━━━━━━━━━━━━━━━━┳━━━━━━━━━━━━━━━━━━━━━┳━━━━━━━━━━━━┓
┃ Layer (type)               ┃ Output Shape        ┃    Param # ┃
┡━━━━━━━━━━━━━━━━━━━━━━━━━━━━╇━━━━━━━━━━━━━━━━━━━━━╇━━━━━━━━━━━━┩
│ input_layer (InputLayer)   │ (None, 32, 32, 3)   │          0 │
├────────────────────────────┼─────────────────────┼────────────┤
│ conv1 (Conv2D)             │ (None, 16, 16, 32)  │        864 │
├────────────────────────────┼─────────────────────┼────────────┤
│ conv1_bn                   │ (None, 16, 16, 32)  │        128 │
│ (BatchNormalization)       │                     │            │
├────────────────────────────┼─────────────────────┼────────────┤
│ conv1_relu (ReLU)          │ (None, 16, 16, 32)  │          0 │
├────────────────────────────┼─────────────────────┼────────────┤
│ conv_dw_1                  │ (None, 16, 16, 32)  │        288 │
│ (DepthwiseConv2D)          │                     │            │
├────────────────────────────┼─────────────────────┼────────────┤
│ conv_dw_1_bn               │ (None, 16, 16, 32)  │        128 │
│ (BatchNormalization)       │                     │            │
├────────────────────────────┼─────────────────────┼────────────┤
│ conv_dw_1_relu (ReLU)      │ (None, 16, 16, 32)  │          0 │
├────────────────────────────┼─────────────────────┼────────────┤
│ conv_pw_1 (Conv2D)         │ (None, 16, 16, 64)  │      2,048 │
├────────────────────────────┼─────────────────────┼────────────┤
│ conv_pw_1_bn               │ (None, 16, 16, 64)  │        256 │
│ (BatchNormalization)       │                     │            │
├────────────────────────────┼─────────────────────┼────────────┤
│ conv_pw_1_relu (ReLU)      │ (None, 16, 16, 64)  │          0 │
├────────────────────────────┼─────────────────────┼────────────┤
│ conv_pad_2 (ZeroPadding2D) │ (None, 17, 17, 64)  │          0 │
├────────────────────────────┼─────────────────────┼────────────┤
│ conv_dw_2                  │ (None, 8, 8, 64)    │        576 │
│ (DepthwiseConv2D)          │                     │            │
├────────────────────────────┼─────────────────────┼────────────┤
│ conv_dw_2_bn               │ (None, 8, 8, 64)    │        256 │
│ (BatchNormalization)       │                     │            │
├────────────────────────────┼─────────────────────┼────────────┤
│ conv_dw_2_relu (ReLU)      │ (None, 8, 8, 64)    │          0 │
├────────────────────────────┼─────────────────────┼────────────┤
│ conv_pw_2 (Conv2D)         │ (None, 8, 8, 128)   │      8,192 │
├────────────────────────────┼─────────────────────┼────────────┤
│ conv_pw_2_bn               │ (None, 8, 8, 128)   │        512 │
│ (BatchNormalization)       │                     │            │
├────────────────────────────┼─────────────────────┼────────────┤
│ conv_pw_2_relu (ReLU)      │ (None, 8, 8, 128)   │          0 │
├────────────────────────────┼─────────────────────┼────────────┤
│ conv_dw_3                  │ (None, 8, 8, 128)   │      1,152 │
│ (DepthwiseConv2D)          │                     │            │
├────────────────────────────┼─────────────────────┼────────────┤
│ conv_dw_3_bn               │ (None, 8, 8, 128)   │        512 │
│ (BatchNormalization)       │                     │            │
├────────────────────────────┼─────────────────────┼────────────┤
│ conv_dw_3_relu (ReLU)      │ (None, 8, 8, 128)   │          0 │
├────────────────────────────┼─────────────────────┼────────────┤
│ conv_pw_3 (Conv2D)         │ (None, 8, 8, 128)   │     16,384 │
├────────────────────────────┼─────────────────────┼────────────┤
│ conv_pw_3_bn               │ (None, 8, 8, 128)   │        512 │
│ (BatchNormalization)       │                     │            │
├────────────────────────────┼─────────────────────┼────────────┤
│ conv_pw_3_relu (ReLU)      │ (None, 8, 8, 128)   │          0 │
├────────────────────────────┼─────────────────────┼────────────┤
│ conv_pad_4 (ZeroPadding2D) │ (None, 9, 9, 128)   │          0 │
├────────────────────────────┼─────────────────────┼────────────┤
│ conv_dw_4                  │ (None, 4, 4, 128)   │      1,152 │
│ (DepthwiseConv2D)          │                     │            │
├────────────────────────────┼─────────────────────┼────────────┤
│ conv_dw_4_bn               │ (None, 4, 4, 128)   │        512 │
│ (BatchNormalization)       │                     │            │
├────────────────────────────┼─────────────────────┼────────────┤
│ conv_dw_4_relu (ReLU)      │ (None, 4, 4, 128)   │          0 │
├────────────────────────────┼─────────────────────┼────────────┤
│ conv_pw_4 (Conv2D)         │ (None, 4, 4, 256)   │     32,768 │
├────────────────────────────┼─────────────────────┼────────────┤
│ conv_pw_4_bn               │ (None, 4, 4, 256)   │      1,024 │
│ (BatchNormalization)       │                     │            │
├────────────────────────────┼─────────────────────┼────────────┤
│ conv_pw_4_relu (ReLU)      │ (None, 4, 4, 256)   │          0 │
├────────────────────────────┼─────────────────────┼────────────┤
│ conv_dw_5                  │ (None, 4, 4, 256)   │      2,304 │
│ (DepthwiseConv2D)          │                     │            │
├────────────────────────────┼─────────────────────┼────────────┤
│ conv_dw_5_bn               │ (None, 4, 4, 256)   │      1,024 │
│ (BatchNormalization)       │                     │            │
├────────────────────────────┼─────────────────────┼────────────┤
│ conv_dw_5_relu (ReLU)      │ (None, 4, 4, 256)   │          0 │
├────────────────────────────┼─────────────────────┼────────────┤
│ conv_pw_5 (Conv2D)         │ (None, 4, 4, 256)   │     65,536 │
├────────────────────────────┼─────────────────────┼────────────┤
│ conv_pw_5_bn               │ (None, 4, 4, 256)   │      1,024 │
│ (BatchNormalization)       │                     │            │
├────────────────────────────┼─────────────────────┼────────────┤
│ conv_pw_5_relu (ReLU)      │ (None, 4, 4, 256)   │          0 │
├────────────────────────────┼─────────────────────┼────────────┤
│ conv_pad_6 (ZeroPadding2D) │ (None, 5, 5, 256)   │          0 │
├────────────────────────────┼─────────────────────┼────────────┤
│ conv_dw_6                  │ (None, 2, 2, 256)   │      2,304 │
│ (DepthwiseConv2D)          │                     │            │
├────────────────────────────┼─────────────────────┼────────────┤
│ conv_dw_6_bn               │ (None, 2, 2, 256)   │      1,024 │
│ (BatchNormalization)       │                     │            │
├────────────────────────────┼─────────────────────┼────────────┤
│ conv_dw_6_relu (ReLU)      │ (None, 2, 2, 256)   │          0 │
├────────────────────────────┼─────────────────────┼────────────┤
│ conv_pw_6 (Conv2D)         │ (None, 2, 2, 512)   │    131,072 │
├────────────────────────────┼─────────────────────┼────────────┤
│ conv_pw_6_bn               │ (None, 2, 2, 512)   │      2,048 │
│ (BatchNormalization)       │                     │            │
├────────────────────────────┼─────────────────────┼────────────┤
│ conv_pw_6_relu (ReLU)      │ (None, 2, 2, 512)   │          0 │
├────────────────────────────┼─────────────────────┼────────────┤
│ conv_dw_7                  │ (None, 2, 2, 512)   │      4,608 │
│ (DepthwiseConv2D)          │                     │            │
├────────────────────────────┼─────────────────────┼────────────┤
│ conv_dw_7_bn               │ (None, 2, 2, 512)   │      2,048 │
│ (BatchNormalization)       │                     │            │
├────────────────────────────┼─────────────────────┼────────────┤
│ conv_dw_7_relu (ReLU)      │ (None, 2, 2, 512)   │          0 │
├────────────────────────────┼─────────────────────┼────────────┤
│ conv_pw_7 (Conv2D)         │ (None, 2, 2, 512)   │    262,144 │
├────────────────────────────┼─────────────────────┼────────────┤
│ conv_pw_7_bn               │ (None, 2, 2, 512)   │      2,048 │
│ (BatchNormalization)       │                     │            │
├────────────────────────────┼─────────────────────┼────────────┤
│ conv_pw_7_relu (ReLU)      │ (None, 2, 2, 512)   │          0 │
├────────────────────────────┼─────────────────────┼────────────┤
│ conv_dw_8                  │ (None, 2, 2, 512)   │      4,608 │
│ (DepthwiseConv2D)          │                     │            │
├────────────────────────────┼─────────────────────┼────────────┤
│ conv_dw_8_bn               │ (None, 2, 2, 512)   │      2,048 │
│ (BatchNormalization)       │                     │            │
├────────────────────────────┼─────────────────────┼────────────┤
│ conv_dw_8_relu (ReLU)      │ (None, 2, 2, 512)   │          0 │
├────────────────────────────┼─────────────────────┼────────────┤
│ conv_pw_8 (Conv2D)         │ (None, 2, 2, 512)   │    262,144 │
├────────────────────────────┼─────────────────────┼────────────┤
│ conv_pw_8_bn               │ (None, 2, 2, 512)   │      2,048 │
│ (BatchNormalization)       │                     │            │
├────────────────────────────┼─────────────────────┼────────────┤
│ conv_pw_8_relu (ReLU)      │ (None, 2, 2, 512)   │          0 │
├────────────────────────────┼─────────────────────┼────────────┤
│ conv_dw_9                  │ (None, 2, 2, 512)   │      4,608 │
│ (DepthwiseConv2D)          │                     │            │
├────────────────────────────┼─────────────────────┼────────────┤
│ conv_dw_9_bn               │ (None, 2, 2, 512)   │      2,048 │
│ (BatchNormalization)       │                     │            │
├────────────────────────────┼─────────────────────┼────────────┤
│ conv_dw_9_relu (ReLU)      │ (None, 2, 2, 512)   │          0 │
├────────────────────────────┼─────────────────────┼────────────┤
│ conv_pw_9 (Conv2D)         │ (None, 2, 2, 512)   │    262,144 │
├────────────────────────────┼─────────────────────┼────────────┤
│ conv_pw_9_bn               │ (None, 2, 2, 512)   │      2,048 │
│ (BatchNormalization)       │                     │            │
├────────────────────────────┼─────────────────────┼────────────┤
│ conv_pw_9_relu (ReLU)      │ (None, 2, 2, 512)   │          0 │
├────────────────────────────┼─────────────────────┼────────────┤
│ conv_dw_10                 │ (None, 2, 2, 512)   │      4,608 │
│ (DepthwiseConv2D)          │                     │            │
├────────────────────────────┼─────────────────────┼────────────┤
│ conv_dw_10_bn              │ (None, 2, 2, 512)   │      2,048 │
│ (BatchNormalization)       │                     │            │
├────────────────────────────┼─────────────────────┼────────────┤
│ conv_dw_10_relu (ReLU)     │ (None, 2, 2, 512)   │          0 │
├────────────────────────────┼─────────────────────┼────────────┤
│ conv_pw_10 (Conv2D)        │ (None, 2, 2, 512)   │    262,144 │
├────────────────────────────┼─────────────────────┼────────────┤
│ conv_pw_10_bn              │ (None, 2, 2, 512)   │      2,048 │
│ (BatchNormalization)       │                     │            │
├────────────────────────────┼─────────────────────┼────────────┤
│ conv_pw_10_relu (ReLU)     │ (None, 2, 2, 512)   │          0 │
├────────────────────────────┼─────────────────────┼────────────┤
│ conv_dw_11                 │ (None, 2, 2, 512)   │      4,608 │
│ (DepthwiseConv2D)          │                     │            │
├────────────────────────────┼─────────────────────┼────────────┤
│ conv_dw_11_bn              │ (None, 2, 2, 512)   │      2,048 │
│ (BatchNormalization)       │                     │            │
├────────────────────────────┼─────────────────────┼────────────┤
│ conv_dw_11_relu (ReLU)     │ (None, 2, 2, 512)   │          0 │
├────────────────────────────┼─────────────────────┼────────────┤
│ conv_pw_11 (Conv2D)        │ (None, 2, 2, 512)   │    262,144 │
├────────────────────────────┼─────────────────────┼────────────┤
│ conv_pw_11_bn              │ (None, 2, 2, 512)   │      2,048 │
│ (BatchNormalization)       │                     │            │
├────────────────────────────┼─────────────────────┼────────────┤
│ conv_pw_11_relu (ReLU)     │ (None, 2, 2, 512)   │          0 │
├────────────────────────────┼─────────────────────┼────────────┤
│ conv_pad_12                │ (None, 3, 3, 512)   │          0 │
│ (ZeroPadding2D)            │                     │            │
├────────────────────────────┼─────────────────────┼────────────┤
│ conv_dw_12                 │ (None, 1, 1, 512)   │      4,608 │
│ (DepthwiseConv2D)          │                     │            │
├────────────────────────────┼─────────────────────┼────────────┤
│ conv_dw_12_bn              │ (None, 1, 1, 512)   │      2,048 │
│ (BatchNormalization)       │                     │            │
├────────────────────────────┼─────────────────────┼────────────┤
│ conv_dw_12_relu (ReLU)     │ (None, 1, 1, 512)   │          0 │
├────────────────────────────┼─────────────────────┼────────────┤
│ conv_pw_12 (Conv2D)        │ (None, 1, 1, 1024)  │    524,288 │
├────────────────────────────┼─────────────────────┼────────────┤
│ conv_pw_12_bn              │ (None, 1, 1, 1024)  │      4,096 │
│ (BatchNormalization)       │                     │            │
├────────────────────────────┼─────────────────────┼────────────┤
│ conv_pw_12_relu (ReLU)     │ (None, 1, 1, 1024)  │          0 │
├────────────────────────────┼─────────────────────┼────────────┤
│ conv_dw_13                 │ (None, 1, 1, 1024)  │      9,216 │
│ (DepthwiseConv2D)          │                     │            │
├────────────────────────────┼─────────────────────┼────────────┤
│ conv_dw_13_bn              │ (None, 1, 1, 1024)  │      4,096 │
│ (BatchNormalization)       │                     │            │
├────────────────────────────┼─────────────────────┼────────────┤
│ conv_dw_13_relu (ReLU)     │ (None, 1, 1, 1024)  │          0 │
├────────────────────────────┼─────────────────────┼────────────┤
│ conv_pw_13 (Conv2D)        │ (None, 1, 1, 1024)  │  1,048,576 │
├────────────────────────────┼─────────────────────┼────────────┤
│ conv_pw_13_bn              │ (None, 1, 1, 1024)  │      4,096 │
│ (BatchNormalization)       │                     │            │
├────────────────────────────┼─────────────────────┼────────────┤
│ conv_pw_13_relu (ReLU)     │ (None, 1, 1, 1024)  │          0 │
├────────────────────────────┼─────────────────────┼────────────┤
│ global_average_pooling2d   │ (None, 1024)        │          0 │
│ (GlobalAveragePooling2D)   │                     │            │
├────────────────────────────┼─────────────────────┼────────────┤
│ dense (Dense)              │ (None, 256)         │    262,400 │
├────────────────────────────┼─────────────────────┼────────────┤
│ dense_1 (Dense)            │ (None, 10)          │      2,570 │
└────────────────────────────┴─────────────────────┴────────────┘
 Total params: 3,493,834 (13.33 MB)
 Trainable params: 264,970 (1.01 MB)
 Non-trainable params: 3,228,864 (12.32 MB)

🔹 Inference Time:

0.322624 seconds (m1)

🎯 Train Model 🎯
/home/saeed/anaconda3/envs/ml/lib/python3.9/site-packages/keras/src/callbacks/model_checkpoint.py:209: UserWarning: Can save best model only with val_accuracy available, skipping.
…
